final_lstm_model_state_dict.pth (torch, 8261 bytes, 5 tensors)

lstm.weight_ih_l0 f4 [64, 1]
000000 ec fd cf 3d 4a 81 24 3e 8a ce 03 3d f8 b2 9a 3d
       0.10155854 0.16064945 0.032179393 0.07553667
000010 73 ba 21 3d 5a aa a7 3d 5e 5d 6a 3d 37 61 9d 3d
       0.039484452 0.08186789 0.05721795 0.07684558
000020 44 0c 27 3d ef af 22 3c b2 de 47 3d 59 c5 ba 3d
       0.04078318 0.009929641 0.048796363 0.09119672
000030 b8 3b cc 3b 43 b6 b7 3c b5 25 0b bd fa b6 2b 3d
       0.006232705 0.022425776 -0.033971507 0.041922547
000040 73 96 52 3d 29 32 48 3e 2d db ce 3d 75 27 ce 3d
       0.05141301 0.19550385 0.10100398 0.100661196
000050 49 69 22 3d 67 9a 9a 3d 67 00 cd bc 6c 32 22 3d
       0.03965119 0.07548981 -0.025024606 0.039598867
000060 22 08 cb 3d 59 0d 11 3d b7 80 ad 3d bb ac 11 3e
       0.099136606 0.03541312 0.08471816 0.14226048
000070 ad 2f 0f bd bc 1f ce 3d cc 3f dd 3c 50 41 10 3c
       -0.034957577 0.100646466 0.02700796 0.008804634
000080 2c db 8d 3e 8f 86 23 3e 42 fb 74 3e b9 49 d4 3d
       0.27706277 0.15969299 0.23923972 0.10365624
000090 ce 1c 02 be 09 cd 62 bd b8 c9 79 3e 8f 2a 14 be
       -0.127063 -0.055371318 0.24393356 -0.1446936
0000a0 ab 43 bc 3d f8 00 6a be a5 92 ae 3e 83 65 c5 bd
       0.09192594 -0.22851932 0.34096256 -0.096385024
0000b0 06 11 b0 be a1 30 a6 be ca ef 97 3e 97 89 de be
       -0.34387988 -0.32458976 0.29675132 -0.43464348
0000c0 ae fa ed 3d dd 36 d3 3d ed e0 b0 3d f2 b5 c2 3d
       0.11620079 0.10313199 0.08636651 0.095073596
0000d0 b1 1b b5 3d f0 4e d2 3d 40 e8 34 3e 89 7b f0 3d
       0.08843172 0.102689624 0.17666721 0.117423125
0000e0 45 b2 b8 3d 34 8c 29 3d 46 10 dc 3d 0c 01 52 3d
       0.09018377 0.041393474 0.107452914 0.05127053
0000f0 c3 3f db 3d 8e ec 57 3e e6 f6 20 3d 32 0a 3f 3d
       0.10705521 0.21086332 0.03929796 0.046640582

lstm.weight_hh_l0 f4 [64, 16]
000000 5d a1 e5 39 82 2b c3 3a 16 63 2d 3a 1d ec 0e ba
       0.0004379851 0.0014890286 0.0006614191 -0.0005452054
000010 11 4c 09 3b 34 bb 1a ba 73 95 43 ba 10 93 9f b9
       0.002094988 -0.0005902529 -0.00074609293 -0.00030436413
000020 9a b9 f2 ba 60 3b 7c 3b 4c 37 ec 38 18 ac ef 39
       -0.0018518448 0.0038487539 0.00011263657 0.00045713852
000030 98 c1 6f ba ea 90 44 3b 02 f3 2d 3a 8c 5f 3d 39
       -0.0009145974 0.0029993602 0.0006635637 0.00018060039
000040 6d 96 91 ba 84 da 64 bb 32 22 96 3a 69 2f 97 3c
       -0.0011107452 -0.0034920285 0.0011454283 0.018455224
000050 b5 0e 7f 3b 14 91 4f ba 63 0a 27 bc 23 28 17 3c
       0.0038918678 -0.00079180417 -0.0101953475 0.009225878
000060 b3 25 a8 bb f5 b4 ed 3b 7a 6b 34 bb a1 33 57 3a
       -0.005131447 0.007254238 -0.0027529881 0.00082092924
000070 0b 9b 03 bc c9 09 9f bc c3 cf a5 3a f2 65 a5 3b
       -0.008032571 -0.019413846 0.0012650419 0.005047553
000080 7a 40 57 3b 16 b7 f4 3a d8 bc be 3a 7b f0 8f 3a
       0.0032844828 0.0018670287 0.001455213 0.0010981703
000090 dc 73 a2 ba 23 82 15 bc b6 0e 7b 3b a0 dc 42 bb
       -0.0012394148 -0.009125265 0.003830833 -0.0029733554
0000a0 52 2c 8f ba f0 67 21 3b aa 8f 87 3b 24 b0 5f 3a
       -0.0010923243 0.0024628602 0.004136999 0.0008533022
0000b0 3c d8 8a bb e0 48 ab bc 06 cb b3 3a e7 9c 1f bb
       -0.004237203 -0.020908773 0.0013717122 -0.0024354996
0000c0 ee c2 ca 3b 5e 1e db 3b 7f 6c 85 3b 5a bc 13 3c
       0.006187788 0.0066869697 0.0040717716 0.0090170745
0000d0 61 fc be bb c5 ba fd bb 5b 02 fd 3b 00 05 f6 bb
       -0.0058284258 -0.007743212 0.007721228 -0.0075079203
0000e0 8c 2f a5 3b 80 cb 01 bc 7d a5 fd 3b 17 d2 b6 bb
       0.0050410684 -0.007922053 0.007740675 -0.005579244
0000f0 2f 79 da bb 18 e9 3b bc aa e8 bd 3b b1 d2 16 bc
       -0.0066672782 -0.011469148 0.005795558 -0.009205506
000100 20 6e be 3b b9 9e b2 3b cc 92 84 3b b5 4f 08 3c
       0.0058114678 0.00545105 0.00404582 0.008319785
000110 f7 7e 24 bb 6c 8f b3 bb 79 b7 e2 3b 23 1c c6 bb
       -0.002510009 -0.0054797437 0.0069188443 -0.0060458346
000120 51 a3 80 3b e4 a9 a9 bb ec 6e e2 3b 3c fb a7 bb
       0.003925719 -0.0051777232 0.0069101956 -0.005126385
000130 90 84 ab bb eb 48 0d bc 67 5a b5 3b c2 92 e5 bb
       -0.0052343085 -0.008623342 0.0055344584 -0.0070060203
000140 2a 56 05 3c 33 d8 03 3c 43 bd d4 3b 1a 5c 16 3c
       0.008138219 0.008047151 0.0064922883 0.009177232
000150 9b 65 ed bb 06 d8 e1 bb b9 e1 10 3c aa 31 20 bc
       -0.0072447783 -0.006892207 0.008842879 -0.009777466
000160 3a 62 e2 3b 05 36 18 bc ae 80 11 3c a2 7e 02 bc
       0.006908682 -0.009290223 0.008880777 -0.007964762
000170 17 5f 00 bc ea a0 33 bc 2f ba ed 3b 17 e7 23 bc
       -0.007835171 -0.010963658 0.007254861 -0.010003827
000180 03 d3 27 bb 26 5e fa bb 8c 1f f2 ba 42 f2 90 3a
       -0.002560795 -0.007640618 -0.0018472536 0.0011058527
000190 d3 0b d6 3b 46 9a db 3b da f6 7c bb 5c 36 a6 3b
       0.0065321713 0.0067017404 -0.0038599283 0.005072398
0001a0 83 b9 f0 bb 6c 46 27 3c be c3 b1 bb bb e5 99 3b
       -0.0073463335 0.010209661 -0.0054249456 0.0046965755
0001b0 f6 0f ac b9 4b e1 29 3c 91 b2 2c bb a5 a2 c6 3b
       -0.00032818288 0.010368655 -0.002635155 0.006061869
0001c0 cb 6a ce 3b 37 a4 c3 3b f8 b6 af 3b 48 ce 2f 3c
       0.006299352 0.0059705037 0.0053623877 0.010730334
0001d0 58 bd af bb 58 94 a7 bb 68 72 ca 3b d4 c8 a5 bb
       -0.0053631477 -0.0051141195 0.006178189 -0.005059341
0001e0 91 69 6a 3b 15 ce be bb b0 2e e0 3b a7 cc a0 bb
       0.003576849 -0.0058229067 0.006841503 -0.004907209
0001f0 65 8e ba bb 4e 39 23 bc 9b 82 b5 3b fa fd 05 bc
       -0.0056932443 -0.009962393 0.005539251 -0.0081782285
000200 48 00 15 bb 11 62 ad bb 0c af 4e ba 85 28 bf bb
       -0.0022735763 -0.0052912314 -0.00078843604 -0.0058336877
000210 f2 4f b9 3b 68 80 c9 3b a8 56 e3 ba c4 aa be 3b
       0.005655282 0.0061493404 -0.0017344551 0.0058186967
000220 5c 9c 92 bb 0c d0 e9 3b 85 a7 8d bb 9d 66 92 3b
       -0.004474206 0.007135397 -0.0043229484 0.004467799
000230 61 83 60 3a 99 4e 1a 3b f0 ee 3f bb e5 d5 3c 3b
       0.0008564499 0.0023545383 -0.0029286705 0.0028814015
000240 ec e4 d0 b9 7c e0 e5 ba 70 2b 65 ba 64 ef 23 bb
       -0.00039843412 -0.0017538215 -0.00087421294 -0.0025014514
000250 55 eb 32 3b 3e ca 0a 3b ec 2c c4 ba 1f e4 5b 3b
       0.0027300913 0.0021177675 -0.0014967001 0.0033552719
000260 2f 52 43 bb 09 e7 af 3b 84 f9 73 ba 47 2d 1d 3b
       -0.0029803624 0.0053681177 -0.0009306895 0.0023983286
000270 e1 19 b7 3a 8e b3 3a 3b 74 ee 00 ba 43 06 bf 3a
       0.0013969505 0.002848837 -0.0004918345 0.001457401
000280 1b 41 8c bb bf e8 64 bb bf 89 32 bb 38 38 84 bc
       -0.004280222 -0.0034928767 -0.0027242748 -0.016140088
000290 d4 01 17 3c a4 47 11 3c 3f 04 e9 bb dd d1 0d 3c
       0.009216744 0.008867178 -0.007111102 0.008655992
0002a0 cc c4 ea bb 3e 7a 3b 3c d0 0e fd bb a8 ad b6 3b
       -0.0071645733 0.011442719 -0.007722713 0.0055749007
0002b0 41 b3 8c 3b 1e 35 5f 3c 51 4c 8b bb f6 f7 17 3c
       0.0042938297 0.013623504 -0.004251041 0.009275427
0002c0 db 68 3a 3b 2e 9b 11 3b 9b 87 20 3b cb e8 9a ba
       0.0028443846 0.0022217738 0.002449489 -0.0011818645
0002d0 f6 ed 9f ba 4e ff 3a ba 38 1f aa 3a a6 74 2e 39
       -0.0012201655 -0.000713338 0.0012979275 0.00016637388
0002e0 0a 19 40 b9 24 b3 16 39 e9 95 0f 3b 9e e7 ea 39
       -0.00018319875 0.0001437185 0.0021909422 0.00044804526
0002f0 af d9 0d bb d6 34 71 3b 25 51 0c 3b b8 31 35 bb
       -0.0021644642 0.0036805174 0.002141067 -0.0027648043
000300 40 08 1d 3b b8 43 3f 3b 9f 33 88 3a 77 57 25 3b
       0.0023961216 0.002918465 0.0010391361 0.0025229135
000310 76 c0 2a 3b ac 50 3b bc c3 6d 6a bb ff 3c 4c bb
       0.0026054657 -0.011432808 -0.003577099 -0.0031164286
000320 6c 73 e4 bb 00 ce bc 3b d9 bb 06 bc b4 2c 18 3b
       -0.006971767 0.005761862 -0.008223497 0.0023220005
000330 3e 47 21 bc bb 04 90 3c e6 f3 a3 3b 94 f6 14 3b
       -0.009843646 0.01758038 0.00500344 0.002272998
000340 3c f1 19 bc 57 fc 6e 3a be 34 27 bc 7b 1e 53 bd
       -0.009395894 0.0009116581 -0.010205446 -0.05154274
000350 ec 0f ff 3c 58 0b 78 3c 40 d9 bd bc 62 fc 0a 3d
       0.031135522 0.015139423 -0.023174882 0.033932097
000360 00 2f e7 bc eb 81 2a 3d 73 bb 1b bd db 40 8a 3c
       -0.028220654 0.041627806 -0.038020562 0.016876629
000370 5a ec dc 3c 86 41 aa bc db 1f 67 bb 0b 5c 1a 3d
       0.02696817 -0.020783197 -0.003526679 0.037685435
000380 7f f1 87 bc 74 af 5c 3c 90 93 8d 3b ed 24 94 bc
       -0.016594646 0.013469566 0.0043205693 -0.018084014
000390 36 d6 bf 3c 09 0f 89 3c d7 0d fb bc d0 0d c4 3a
       0.023417573 0.016730802 -0.030646248 0.001495773
0003a0 db e2 ea bc 1e 81 3b 3d 96 05 2b bd 4b 0d f2 3b
       -0.028672626 0.045777433 -0.041753374 0.0073868386
0003b0 5c 0d 0f bd 8e 42 c9 bd 3a 7d 8d bb 4d 5b f1 3b
       -0.03492485 -0.098271474 -0.0043179067 0.00736562
0003c0 bb a9 16 bc de c7 32 bc df ce d3 bb e4 7f 36 bc
       -0.00919574 -0.01091191 -0.00646387 -0.01113889
0003d0 1e 7e 67 3c 59 21 62 3c 3e 29 63 bc 94 fd 72 3c
       0.01412919 0.013801896 -0.013864813 0.014830966
0003e0 05 b6 5b bc 25 a8 ac 3c 1c 13 7a bc cd d5 49 3c
       -0.013410096 0.021076271 -0.015263345 0.0123190405
0003f0 c7 9f 30 3c 69 69 8c 3c e8 94 08 bc 24 84 91 3c
       0.010780281 0.017140107 -0.008336283 0.017763205

lstm.bias_ih_l0 f4 [64]
000000 fc 6f cb 3d 94 e2 45 bd 34 fd a3 3c 47 23 33 3d
       0.09933469 -0.048311785 0.020018198 0.043734815
000010 c9 1a 05 3d 6f 50 96 3d df 61 51 3e ea 47 95 3d
       0.032496247 0.0733956 0.20447491 0.07289107
000020 3a 68 b0 3d 11 ca 33 3d a9 e0 25 3e c8 07 a4 3d
       0.0861363 0.043893877 0.16198982 0.08009297
000030 80 6b cd 3c 13 76 3c 3e b5 a5 6c 3e b7 0e 40 3e
       0.025075674 0.18404417 0.23110087 0.18755613
000040 e7 34 02 3e f3 7f 44 3e e7 52 22 3e 1a 87 e8 3d
       0.12715493 0.19189434 0.15851937 0.113538936
000050 47 fe 31 3d 86 04 bc 3d 98 59 0e bc a7 cd 24 3c
       0.04345539 0.0918055 -0.008688353 0.010058797
000060 17 b8 01 bd aa 3f 93 3d 00 25 30 3d 7f d7 d8 3d
       -0.031669702 0.07189877 0.043004036 0.105879776
000070 30 07 16 3e 42 98 d6 bd 65 af 99 3d 7f b9 8c 3d
       0.1465118 -0.104782596 0.07504157 0.06871318
000080 c3 00 14 bd 66 b2 1d 3e 01 38 42 be bc 1f 26 bd
       -0.03613354 0.15400085 -0.18966676 -0.040557608
000090 2d 73 c5 bb 8b b0 c6 3c 20 e5 a3 3d 90 36 4b 3d
       -0.006025693 0.024254104 0.080026865 0.04961258
0000a0 a5 8c 9a 3d 36 11 e5 3c 84 72 16 bd 2e 0a e8 bd
       0.07546357 0.027962308 -0.036730304 -0.113300666
0000b0 1d 4f ae bd 03 68 2f bd 3e a5 fb bd b5 96 5c 3e
       -0.085111834 -0.042823803 -0.12287377 0.21541865
0000c0 e6 00 55 3d 85 56 38 3e 53 f0 e1 3d 3b 03 dd 3d
       0.05200281 0.18001755 0.11032166 0.10791632
0000d0 6f fc 00 3d a6 3e 81 3d 47 4f 5a 3d be fb 1e 3d
       0.03149074 0.06310777 0.05329826 0.0388143
0000e0 71 e4 8b bd 86 ce 46 3d de 17 13 3d 5c 0d a9 3d
       -0.06830681 0.0485368 0.035911433 0.08254501
0000f0 cb be 71 3d d0 3a e8 bd b0 67 16 3e e7 77 34 3e
       0.059019845 -0.113393426 0.14687991 0.17623864

lstm.bias_hh_l0 f4 [64]
000000 37 9e b4 3d da d8 e9 3c d5 93 c4 3d 46 c0 a4 3d
       0.088192396 0.028545786 0.09598509 0.08044486
000010 fc fb 86 3c c0 a3 6f 3d e7 f8 44 3e 25 ee c8 3d
       0.016477577 0.058505774 0.19235574 0.098110475
000020 3c 2a a2 bc 6e b9 60 3d 3c 8d 98 3d a2 57 1f bd
       -0.01979553 0.05486434 0.07448813 -0.038901933
000030 cc e3 1a 3e 83 a1 10 3e cc 8f 58 bd 6c 8a 44 3e
       0.1512596 0.14124112 -0.05287151 0.19193429
000040 35 3a 89 3d 42 02 ea bc 1a 19 38 bb 5b 93 04 3e
       0.06700555 -0.02856553 -0.0028091134 0.12946837
000050 5e ce 0e 3d dc 98 71 3d ce 96 2d 3e c3 ff 0d 3d
       0.034864776 0.05898367 0.16952059 0.03466774
000060 01 59 7d bd c1 34 85 3d 7a cc 98 bd 97 b4 0c bc
       -0.06185246 0.06504203 -0.07460876 -0.008587978
000070 5e c3 70 3d 15 74 ef 3d 0c c9 cd 3d d7 11 04 bc
       0.058780067 0.11692063 0.10048112 -0.008060894
000080 b8 ef 1d bd cb fc 4a be a0 8d fe 3d 09 3d 6e 3c
       -0.03855869 -0.19822995 0.124293566 0.014540919
000090 0f 11 1f 3d 3d fd ba bc d1 7e 13 be 34 22 51 bc
       0.038834628 -0.022825832 -0.14403845 -0.012764502
0000a0 f9 79 da bd b4 31 e1 3c 16 52 74 bd 60 68 09 3e
       -0.10667796 0.02748952 -0.059648596 0.13418722
0000b0 80 be 3a 3e 51 a2 01 3e 3d 0d 43 3d 85 b3 c8 bd
       0.18236732 0.12659575 0.047620047 -0.09799866
0000c0 6c 3d d6 3d 2d d6 68 3c b5 89 b7 bb a3 d1 42 3d
       0.10460934 0.01421122 -0.0056011328 0.047563206
0000d0 a1 c3 52 3d 8e 91 19 3d 19 ec 9e 3d ea 8e 3a 3d
       0.051456098 0.037492327 0.07759876 0.04554645
0000e0 c6 61 26 3d 1c 3f b1 3d 88 2c b1 3d 9e 12 e9 bc
       0.040620588 0.08654615 0.08651072 -0.02845126
0000f0 51 6d 34 3d df d8 ec 3d a6 b9 88 bc f2 38 38 3e
       0.044049565 0.115648024 -0.016690087 0.17990473

linear.weight f4 [1, 16]
000000 f9 b6 8c 3e 92 ed 80 3e bf a7 c0 3e ae 35 27 3e
       0.27483347 0.25181252 0.3762798 0.16329071
000010 74 94 6b be 24 1f 4c be 1c 23 6c 3e c1 ec 61 be
       -0.23005849 -0.19933754 0.23060268 -0.2206297
000020 b2 6d 77 3e 6b b5 45 be 78 29 61 3e 87 8b 87 be
       0.24162939 -0.19307487 0.21988475 -0.26473638
000030 2e 35 88 be b2 ac 35 be b1 f8 9a 3e 54 7d 4d be
       -0.26603073 -0.1774166 0.3026786 -0.2006734
